prova.pth (torch, 74548 bytes, 6 tensors)

linear.0.weight f4 [128, 7]
000000 89 44 a9 3d 4a 73 1d 3e 56 27 1f bb ad 0f a7 3f
       0.08265025 0.1537601 -0.002428492 1.3051659
000010 69 45 b1 3f 40 98 7b bc af 42 d0 3d 2e 5a 06 bc
       1.3849307 -0.015356123 0.10168969 -0.008200211
000020 47 5b 06 bc 2a b6 ec b1 01 da 09 a6 73 a4 0a a6
       -0.008200473 -6.8892136e-09 -4.7826874e-16 -4.810124e-16
000030 58 47 8e 2f 48 20 cf bc 40 dc 95 98 b0 fe 95 98
       2.5880342e-10 -0.025283948 -3.8737993e-24 -3.8772766e-24
000040 5b ce d9 97 78 5d 3f 16 2c a1 7c 16 e0 95 7e af
       -1.4075388e-24 1.5458351e-25 2.0407255e-25 -2.3154412e-10
000050 60 62 27 ae f9 08 00 00 f9 08 00 00 29 07 00 00
       -3.805878e-11 3.219e-42 3.219e-42 2.569e-42
000060 34 03 00 00 98 03 00 00 4e 02 00 80 c1 87 17 ad
       1.149e-42 1.289e-42 -8.27e-43 -8.6135e-12
000070 4f 5f fd be 60 aa 1e bf a6 9c fb bd d9 75 5a bf
       -0.49486777 -0.6197872 -0.12285738 -0.8533607
000080 59 02 94 bf 9f 31 5f be 25 3b 8b 3e 93 dc 41 be
       -1.1563216 -0.21796273 0.2719356 -0.18931799
000090 fa 12 42 be 1a 76 e2 bd 95 8e 05 c0 9d 9f 12 c0
       -0.18952551 -0.11057682 -2.0868275 -2.290992
0000a0 49 5a 5d c0 5c 00 3e 3e b5 c4 32 bc 7d d4 32 bc
       -3.4586356 0.18554825 -0.010911156 -0.010914919
0000b0 74 f9 10 bc 5d 4a 66 bc f3 82 68 bc 57 0b 00 00
       -0.008848537 -0.0140558155 -0.014191377 4.068e-42
0000c0 e6 4c 43 bc 07 62 64 97 cf 01 75 97 fc 07 00 00
       -0.0119201895 -7.37945e-25 -7.916605e-25 2.864e-42
0000d0 7f 07 00 00 4e 07 00 00 e4 09 00 00 41 83 59 b8
       2.689e-42 2.62e-42 3.548e-42 -5.185907e-05
0000e0 41 71 30 be 3b f2 7e 3d 78 80 af 3e d5 97 f0 3f
       -0.17230703 0.062242728 0.342777 1.8796335
0000f0 4d 06 01 40 a6 4f e4 3e d9 84 be 3c dd 13 5a be
       2.0160096 0.44592017 0.023256706 -0.2129664
000100 27 4a 9c 3d c5 1e 04 bd c5 4f cc bf 70 75 eb bf
       0.07631331 -0.032255907 -1.5961844 -1.8395214
000110 bc 17 59 b9 9c 04 92 3e 99 4c 02 3f d0 79 8e 3e
       -0.00020703574 0.28519142 0.5089813 0.2782731
000120 0a 8b 87 3b cc 08 d6 3f dc 67 dd 3f 53 53 d5 40
       0.004136448 1.6721435 1.729732 6.6664214
000130 06 f8 0b be 7d 62 fd bc 56 5f fd bc ea c6 34 bb
       -0.13668832 -0.030930752 -0.030929249 -0.0027584382
000140 db 1a 66 ba be c6 65 ba db 08 00 00 e7 9a e4 bc
       -0.00087778055 -0.00087652716 3.177e-42 -0.027905894
000150 ac c1 47 bf c6 88 ee be 8b 2c 9e 3d e3 5d bb bf
       -0.78029895 -0.46588725 0.0772334 -1.4638027
000160 0a 4e a6 bf 18 a5 32 bc 45 77 20 3e bf 08 00 00
       -1.2992566 -0.010903619 0.15670498 3.138e-42
000170 e2 07 00 00 4b 06 00 00 6a 04 00 00 81 04 00 00
       2.828e-42 2.257e-42 1.583e-42 1.616e-42
000180 14 00 00 00 b3 87 78 a6 d7 d4 32 93 10 aa 31 93
       2.8e-44 -8.622619e-16 -2.2571697e-27 -2.2424388e-27
000190 31 09 00 00 5f 03 00 80 fb 01 00 80 0c 02 bb a4
       3.297e-42 -1.21e-42 -7.1e-43 -8.110179e-17
0001a0 81 04 c0 b4 ea f0 11 bf 3e 3f 16 bf 24 16 a6 3d
       -3.5766064e-07 -0.5700823 -0.5869025 0.08109692
0001b0 e6 22 e9 bf 94 81 19 c0 a2 b1 f9 be 4e da 29 3e
       -1.8213775 -2.3985338 -0.48768336 0.16587183
0001c0 31 4d b4 be 69 ec ad be 91 9c 1e 3e 8d 69 da bf
       -0.35215142 -0.3396943 0.15489413 -1.7063462
0001d0 58 e4 a2 bf d6 5d 1b bd 4b 1e 8e 3e 58 49 b8 3e
       -1.2725935 -0.037931286 0.27757487 0.35993457
0001e0 df 81 b5 3e 6a 03 4a be 5b b0 da 3f 45 6c e8 3f
       0.35450646 -0.19727865 1.708507 1.8158041
0001f0 5c c8 38 3f e3 9c 93 bd 64 e1 21 bb 41 45 22 bb
       0.72180724 -0.07207658 -0.0024700994 -0.0024760517
000200 25 46 5b af 93 05 00 00 e4 06 00 00 a4 7c a5 17
       -1.9942854e-10 2e-42 2.472e-42 1.0694339e-24
000210 ab e5 b9 bc 23 8c 07 bf 05 da bf be 8d 77 4c 3d
       -0.022692522 -0.52948207 -0.37471023 0.0499187
000220 16 0e 7e 3f 7b a7 b1 3f 2c 91 65 40 b6 9d 47 3e
       0.99240243 1.3879236 3.5869856 0.19493756
000230 cf 28 48 be 33 e5 64 be e9 d1 29 be 65 22 cc bf
       -0.19546817 -0.22353058 -0.1658398 -1.5947996
000240 51 4a c8 bf 4e 3a 81 bc bb 8d 58 3e 86 6d 03 b9
       -1.564768 -0.015774872 0.21147816 -0.00012533934
000250 30 58 03 b9 15 55 ee 95 ad 0e 00 00 71 0f 00 00
       -0.00012525986 -9.626167e-26 5.265e-42 5.54e-42
000260 6a 84 38 31 f4 6d 7b bc 82 a9 de 3e 8e 35 0c 3f
       2.6850793e-09 -0.015346039 0.434887 0.5476922
000270 5a 98 b0 be b7 2e f1 3f 3d 48 cb 3f f6 92 e4 40
       -0.34491235 1.8842381 1.588142 7.1429396
000280 d1 03 51 be 12 39 a5 be a1 30 1e bf 4f 9e a1 be
       -0.20411612 -0.32270104 -0.6179295 -0.31566092
000290 99 77 0b c0 82 ad fd bf 3c e2 91 bf ab 34 13 3e
       -2.1791747 -1.9818575 -1.1397166 0.1437556
0002a0 e9 c3 c6 bd 09 73 00 bf d8 0f d5 3e ba d7 8b bc
       -0.09705336 -0.5017553 0.4161365 -0.01707064
0002b0 bc 70 36 be e9 27 1b be 5d 56 03 3e 51 f5 9a be
       -0.17816442 -0.15151943 0.12825914 -0.30265287
0002c0 3a 43 40 bf de c5 56 3e f6 76 9c bf 99 95 5d bf
       -0.7510258 0.20973918 -1.2223804 -0.8655639
0002d0 96 fb 9f be 57 ef 7c 3e ff ed 8a 3e 7b 7d 37 3e
       -0.31246632 0.24700676 0.27134702 0.17918961
0002e0 1c be 3f 3d cc 12 dd 3f 6c d3 f4 3f e8 68 e0 3c
       0.04681216 1.7271361 1.9127021 0.027393773
0002f0 62 8b 11 3e 12 08 00 00 40 09 00 00 d4 07 00 00
       0.14213327 2.895e-42 3.318e-42 2.808e-42
000300 00 04 00 00 fb 03 00 00 12 71 72 b9 e9 33 f1 b4
       1.435e-42 1.428e-42 -0.0002312104 -4.4927518e-07
000310 14 df 32 3e 40 8e 94 be 29 cd ef bc 6c 12 36 b8
       0.1746791 -0.29014778 -0.029272633 -4.3409338e-05
000320 6d 4a 3d b8 38 4c 13 26 dc ce 31 3b e1 08 00 00
       -4.5130426e-05 5.1104166e-16 0.0027131354 3.185e-42
000330 94 08 00 00 3c 06 00 00 b9 05 00 00 45 05 00 00
       3.077e-42 2.236e-42 2.053e-42 1.89e-42
000340 60 12 00 00 9b c1 ee a8 e7 46 0c bf 6a 6e 95 be
       6.592e-42 -2.6507271e-14 -0.5479569 -0.29185802
000350 c4 52 26 3e aa 00 05 c0 f5 59 07 c0 71 3c 8c bf
       0.1624251 -2.0781655 -2.1148655 -1.0955945
000360 1d 9a 01 3e 36 4b 36 bc e5 47 36 bc 70 c4 54 bc
       0.12656446 -0.01112633 -0.011125539 -0.0129862875
000370 9f 00 22 bc a2 fe 21 bc 92 6d ad 9b f0 68 56 bc
       -0.009887843 -0.009887369 -2.8691257e-22 -0.0130865425
000380 af 08 00 00 f4 07 00 00 33 07 00 00 bc 04 00 00
       3.115e-42 2.853e-42 2.583e-42 1.698e-42
000390 59 05 00 00 3d 0f 00 80 e6 38 00 a9 4f b6 95 be
       1.918e-42 -5.466e-42 -2.847106e-14 -0.29240653
0003a0 5d fd 6f 3e 5d 5a 52 be c4 37 b7 bf 00 71 eb bf
       0.23436494 -0.20542283 -1.4313893 -1.839386
0003b0 81 8b 47 bc f3 f4 9d 3e 57 81 8a ad 5a 92 83 ad
       -0.012179256 0.30850944 -1.5746222e-11 -1.4957969e-11
0003c0 8e 07 00 00 2e 07 00 00 b8 06 00 00 2d 09 00 00
       2.71e-42 2.576e-42 2.41e-42 3.292e-42
0003d0 6f 36 a9 ba c5 f6 b6 bd e6 5c 8d be 91 80 44 3e
       -0.0012909899 -0.08933786 -0.27609938 0.19189669
0003e0 65 3f c8 bf ac 6d bd bf 55 27 4f ba d0 7b 70 3e
       -1.5644346 -1.4799094 -0.0007902284 0.2348473
0003f0 5e 81 c1 3e 23 68 0e 3f 8b b0 3e 3e d0 61 0e 40
       0.37794012 0.5562765 0.18622033 2.22472

linear.0.bias f4 [128]
000000 cf 22 40 3e ec 12 00 80 99 a5 d8 15 09 07 00 00
       0.18763278 -6.788e-42 8.750297e-26 2.524e-42
000010 c3 f9 b6 be dd e9 ba bd 59 d8 68 b1 f1 12 00 80
       -0.35737428 -0.09126637 -3.3883423e-09 -6.795e-42
000020 5a e6 16 3d 80 26 8d be 49 cf 57 3d d0 04 00 00
       0.036840774 -0.27568436 0.052687917 1.726e-42
000030 71 c3 4b bd 74 12 00 80 16 70 02 00 d3 7f 3d 3e
       -0.049746934 -6.62e-42 2.2388e-40 0.18505792
000040 cd ff d0 bd f9 22 4b 3e 6b 01 00 80 95 b2 34 be
       -0.1020504 0.1983756 -5.09e-43 -0.17646249
000050 ee 33 9e 3b 8f 10 00 80 9b 54 38 bd c9 e8 8e be
       0.004827968 -5.94e-42 -0.04500256 -0.27911976
000060 22 bb 94 3e 5b bc 5a 3d b0 58 94 be 75 08 00 00
       0.2904902 0.053402286 -0.28973913 3.034e-42
000070 cf 29 5c 12 42 04 00 80 0a ea d6 3d ef 3f 24 bc
       6.9471293e-28 -1.527e-42 0.10493858 -0.010025009
000080 05 0f 00 00 64 ed ac 3d f5 06 00 80 a1 dc 23 3c
       5.388e-42 0.08443716 -2.496e-42 0.0100013325
000090 90 d4 54 3e a7 35 d0 3d 50 09 00 80 1b 05 00 00
       0.20784211 0.10166483 -3.34e-42 1.831e-42
0000a0 f8 a0 2d 9c f8 c6 b2 3d 6c 04 00 80 d5 9e c4 bc
       -5.7448946e-22 0.087293565 -1.586e-42 -0.024001518
0000b0 27 05 00 00 0e 00 00 00 3e 49 99 3e 3a 01 00 80
       1.848e-42 2e-44 0.29938692 -4.4e-43
0000c0 7e 15 67 be e8 05 00 00 2f b7 6c 3e f5 bd 8a be
       -0.22566792 2.119e-42 0.23116754 -0.2709805
0000d0 f2 49 22 3e e5 02 00 00 6b fb b5 3b 2e 2f 90 3d
       0.1584852 1.038e-42 0.005553653 0.07040249
0000e0 17 73 71 be 2e 06 00 80 04 00 00 00 3c 0d 00 00
       -0.2357906 -2.217e-42 6e-45 4.748e-42
0000f0 d3 07 42 3d 94 e1 5a bc df 43 7b b9 fb 37 a1 3e
       0.047370743 -0.013359446 -0.0002396251 0.31488022
000100 66 05 00 00 a7 09 00 80 81 05 d7 3d 04 06 00 00
       1.937e-42 -3.463e-42 0.10499097 2.158e-42
000110 99 3e 90 3d d6 af 85 be 28 62 4c be b0 10 00 80
       0.070431896 -0.26110715 -0.19959319 -5.986e-42
000120 42 ff 45 be 28 04 00 80 8a 25 63 be cf 8b d6 bd
       -0.19335654 -1.491e-42 -0.22182289 -0.10475885
000130 60 07 00 80 d1 57 a0 bd 00 09 00 00 ec 10 40 bd
       -2.646e-42 -0.0782925 3.229e-42 -0.046891138
000140 03 0f 00 80 94 e2 13 3e c4 e6 4e be c5 ba 63 be
       -5.385e-42 0.14441901 -0.20205218 -0.22239216
000150 4e fc 8a bc 7b 13 29 be 1a 14 cf bd 4e 07 00 80
       -0.016966011 -0.16511337 -0.10111256 -2.62e-42
000160 a5 82 11 bc 08 c6 7f bc b0 04 00 00 c8 cc 3b bd
       -0.008881246 -0.015611179 1.682e-42 -0.04584959
000170 0f 4c a0 3e 0e 03 00 80 6b 4c bb be ea 0e 00 80
       0.31308028 -1.096e-42 -0.3658174 -5.35e-42
000180 88 a8 10 be 65 06 00 80 f4 12 04 be cf 07 2b 3d
       -0.1412679 -2.294e-42 -0.12897855 0.041755494
000190 27 02 00 00 e4 b6 bd ba ae 08 00 80 50 08 00 00
       7.72e-43 -0.0014474061 -3.114e-42 2.982e-42
0001a0 a0 01 00 00 c9 df dc 3d 68 05 00 00 c9 05 00 00
       5.83e-43 0.10784871 1.94e-42 2.075e-42
0001b0 3a 9e a9 bd e0 12 40 be 5d 5f 00 80 2f b6 19 be
       -0.082821324 -0.187572 -3.421e-41 -0.15010904
0001c0 e2 07 00 80 d4 02 00 00 52 92 9c bc 99 1c f7 bd
       -2.828e-42 1.015e-42 -0.01911274 -0.120660014
0001d0 3a 28 96 3c a5 d3 8e 3e 53 07 00 00 b9 a8 d0 bd
       0.018329728 0.27895847 2.627e-42 -0.10188431
0001e0 74 01 00 80 0e 04 00 80 e1 03 00 00 99 01 00 00
       -5.21e-43 -1.455e-42 1.391e-42 5.73e-43
0001f0 e4 47 22 3e 89 34 8e bd b8 6f 43 3e 5f 3c 8b be
       0.15847737 -0.06943614 0.19085586 -0.27194497

linear.2.weight f4 [128, 128]
000000 35 38 17 39 4e 06 00 80 cb 0b 00 80 73 0d 00 80
       0.00014421421 -2.262e-42 -4.23e-42 -4.825e-42
000010 3e 06 de b9 0e ef 90 38 4e 0d 00 00 93 02 00 80
       -0.0004234779 6.9109825e-05 4.773e-42 -9.23e-43
000020 fd 23 de ae 12 08 cd ba a2 0a 00 00 00 11 00 80
       -1.0101784e-10 -0.0015642664 3.814e-42 -6.098e-42
000030 a1 75 52 b5 3d 11 00 00 ff 08 00 80 c3 42 ec b7
       -7.840227e-07 6.184e-42 -3.227e-42 -2.816448e-05
000040 98 91 16 39 20 7a 20 27 6b bc c9 ae b9 2c 89 88
       0.00014359353 2.2270665e-15 -9.1738915e-11 -8.255902e-34
000050 e6 95 d7 39 4f 05 00 80 8c 05 00 00 90 ce 11 b6
       0.0004111968 -1.904e-42 1.99e-42 -2.172692e-06
000060 8b 05 cf 9b 4a 14 a5 b7 05 16 dc b9 c9 02 00 00
       -3.424886e-22 -1.967898e-05 -0.00041978076 9.99e-43
000070 3e a6 62 94 97 df 30 b7 bc 0d 14 b4 1a 8c c4 34
       -1.144287e-26 -1.0542476e-05 -1.378857e-07 3.6609782e-07
000080 27 09 00 80 04 f4 cf b9 41 0e 00 00 ff 54 98 3a
       -3.283e-42 -0.00039663923 5.113e-42 0.001162201
000090 ac 05 00 80 66 91 1a 39 97 0e 00 80 d0 87 f3 2c
       -2.035e-42 0.0001474075 -5.234e-42 6.9215536e-12
0000a0 df 12 00 80 f1 8b c5 34 ba 0c 00 80 d1 30 f2 b8
       -6.77e-42 3.679593e-07 -4.565e-42 -0.00011548552
0000b0 c4 01 00 80 84 09 00 80 48 75 12 a0 87 07 00 00
       -6.33e-43 -3.414e-42 -1.2405486e-19 2.7e-42
0000c0 36 65 ad b9 68 a3 23 34 7a 07 00 00 cf 75 42 b9
       -0.0003307254 1.5240005e-07 2.682e-42 -0.00018545169
0000d0 71 d9 db 36 01 12 00 00 42 0b 00 00 09 0a 17 b7
       6.552022e-06 6.459e-42 4.039e-42 -9.002638e-06
0000e0 71 bb 1a bb c6 0f 00 00 86 03 00 80 f3 0e 00 00
       -0.002361026 5.658e-42 -1.264e-42 5.363e-42
0000f0 29 dc fd 38 00 28 09 35 60 06 00 00 bf 06 00 80
       0.00012104988 5.1094685e-07 2.287e-42 -2.42e-42
000100 03 08 00 80 7c 08 00 00 4c 1d d8 9f b5 08 00 80
       -2.874e-42 3.044e-42 -9.1528026e-20 -3.123e-42
000110 5e 0c c4 35 6c f9 bf b9 0a 21 38 32 29 0f 00 00
       1.4606737e-06 -0.00036616193 1.0717722e-08 5.438e-42
000120 30 77 4d 34 3d 00 00 80 a5 5f 13 3a b0 9f b0 32
       1.9135473e-07 -8.5e-44 0.0005621857 2.0561714e-08
000130 90 02 00 00 5b 32 b3 37 e8 01 00 00 d3 15 6b b9
       9.19e-43 2.1361911e-05 6.84e-43 -0.00022419477
000140 02 0e 00 80 0b 28 fc 13 76 6e 59 34 57 bf 8a b6
       -5.025e-42 6.365323e-27 2.0249885e-07 -4.1349954e-06
000150 fc 07 00 00 7b 99 cb b8 6c 42 c2 3a 63 05 00 00
       2.864e-42 -9.708382e-05 0.0014820821 1.932e-42
000160 65 ed 1d a2 e3 04 00 80 c3 0c 00 00 bb fa 3b 39
       -2.1403143e-18 -1.753e-42 4.578e-42 0.00017927114
000170 84 fb e5 18 43 04 00 80 c0 c0 90 38 e1 e7 0f 39
       5.944908e-24 -1.529e-42 6.9023576e-05 0.00013723924
000180 43 89 d0 33 10 03 00 00 87 60 4c 34 97 45 bf 39
       9.7107225e-08 1.099e-42 1.9034097e-07 0.00036482207
000190 1a 08 00 00 bd 08 00 80 9f 07 00 80 27 01 00 80
       2.906e-42 -3.135e-42 -2.734e-42 -4.13e-43
0001a0 5a 0b 00 80 6c a1 16 b8 8a 03 00 80 1f 09 00 00
       -4.072e-42 -3.5913123e-05 -1.27e-42 3.272e-42
0001b0 d2 49 ac 31 58 f7 3c b6 24 c3 b6 b2 04 dd a0 39
       5.0142512e-09 -2.8158156e-06 -2.1276328e-08 0.00030682248
0001c0 b4 92 7c ae e9 1c a1 a6 66 07 00 80 50 de 52 37
       -5.7428465e-11 -1.1179455e-15 -2.654e-42 1.2568737e-05
0001d0 0d b7 67 38 27 8e eb b6 a8 08 00 00 1c 3d ae a5
       5.524517e-05 -7.0200945e-06 3.105e-42 -3.0225598e-16
0001e0 81 08 00 80 30 07 00 80 e0 53 07 36 8d 06 00 00
       -3.05e-42 -2.578e-42 2.016539e-06 2.35e-42
0001f0 c5 41 34 37 e7 86 69 a9 02 ae 45 ba a8 ea c3 b9
       1.0744149e-05 -5.1853402e-14 -0.0007540883 -0.0003736813
000200 c5 18 89 3c cf 23 d4 1e 6a 31 f3 3c 1d 08 00 80
       0.016735444 2.2461183e-20 0.029686648 -2.91e-42
000210 34 c2 0d 3e 5e fd 93 bf 57 3e 88 3c b1 07 00 80
       0.13843614 -1.1561697 0.016631288 -2.759e-42
000220 e1 42 bd 3e 61 5f 1d be 28 87 9c 40 de 00 03 bd
       0.36965087 -0.15368415 4.8914986 -0.03198325
000230 ca ff 1b c0 bb 06 00 80 2a da 00 00 64 5d bf bf
       -2.4374871 -2.414e-42 7.8263e-41 -1.4950376
000240 f4 4c 4c be 45 5f 1b 3f ba f4 ac bb 40 7f 0f 40
       -0.1995123 0.60692245 -0.005278197 2.2421417
000250 51 a2 93 bc 22 77 db 29 3a b8 bd 40 06 c0 f5 bf
       -0.018021734 9.74622e-14 5.9287386 -1.9199226
000260 21 99 4a 3f 23 fc a9 3e 64 81 3a 3e 1c 08 00 00
       0.79139906 0.33200178 0.18213421 2.909e-42
000270 de e1 20 a7 e2 0c 00 00 ca 58 df bf a0 75 49 bb
       -2.2326903e-15 4.621e-42 -1.7448971 -0.0030740276
000280 c9 04 00 80 e0 6b 29 be f5 e0 d4 89 f2 e0 1e be
       -1.717e-42 -0.16545057 -5.1248692e-33 -0.15515497
000290 9f 2c 9d 40 d3 04 c4 3f e0 06 00 00 cc d5 f0 89
       4.911697 1.5313972 2.466e-42 -5.7978952e-33
0002a0 f9 00 00 80 d7 cb 67 3e 5b 06 00 00 95 c0 63 bf
       -3.49e-43 0.22636352 2.28e-42 -0.8896573
0002b0 c1 07 00 80 22 03 00 80 1e 97 df bf 74 41 d4 a4
       -2.782e-42 -1.124e-42 -1.7467992 -9.2051226e-17
0002c0 4c 27 d5 3c 61 08 00 80 2d 65 3f 3f cf ca ae bd
       0.026019715 -3.006e-42 0.74763757 -0.085347764
0002d0 bf 45 e4 bf a5 09 00 80 b5 0f 87 3c a5 68 d8 bf
       -1.7833785 -3.46e-42 0.016486982 -1.6906935
0002e0 9a ee 3b bd 34 07 00 80 3e 01 00 00 26 15 0c 37
       -0.045881845 -2.584e-42 4.46e-43 8.349574e-06
0002f0 68 c1 fd 3e 0b 61 f4 bf df 91 c9 3c 8d 0f 0d 3f
       0.4956162 -1.9092115 0.02460569 0.55101854
000300 c2 fb 8e 3b 32 08 00 00 04 79 ef 32 5f e6 ad bb
       0.004363508 2.94e-42 2.7878293e-08 -0.0053070034
000310 8d f9 a1 3e 20 bc ee 3d 74 6f 56 3e 59 07 00 00
       0.31635705 0.11656976 0.20940953 2.636e-42
000320 b1 c9 d8 bf 1d 13 cf 2d 00 8b fe bc 8b f3 a5 bf
       -1.6936551 2.3541663e-11 -0.03107214 -1.2964948
000330 41 02 00 00 a2 6d 44 3d 6f 04 00 00 b7 73 0f 3e
       8.09e-43 0.047956116 1.59e-42 0.14008985
000340 64 03 00 00 ad 9e 16 3f 0d e0 1e c0 b2 4a bb bf
       1.216e-42 0.5883587 -2.482425 -1.463217
000350 12 03 d0 bb fe 79 9b 3e 14 4f 83 be 47 07 00 00
       -0.0063480223 0.3036651 -0.2564627 2.61e-42
000360 7c 02 bc 3e 8e a9 95 bb 45 d9 18 b5 32 c1 0c 3e
       0.36720645 -0.0045673316 -5.694058e-07 0.13745573
000370 94 17 2e c0 6d 01 94 35 4d ba 0b bf 01 45 0d 05
       -2.720189 1.1027274e-06 -0.5458115 6.642462e-36
000380 a5 b6 d2 bf 8c 07 00 80 70 f2 61 3e 90 68 86 3d
       -1.6461989 -2.707e-42 0.22065139 0.065629125
000390 ce 05 00 00 c3 55 dd bc d5 07 00 00 f9 0d 29 a7
       2.082e-42 -0.027018433 2.81e-42 -2.3461036e-15
0003a0 32 37 d1 3a 3c ba 68 3f 9a 0f 00 80 70 11 00 00
       0.0015961884 0.9090917 -5.597e-42 6.255e-42
0003b0 be fb 01 3f e6 54 24 c0 1a ae f3 aa 1a 7a d7 bd
       0.50774753 -2.5676818 -4.3286278e-13 -0.10521336
0003c0 a3 01 00 00 fc c0 c0 3c 28 e8 26 bf ab c7 dc bf
       5.87e-43 0.023529522 -0.6519799 -1.7248434
0003d0 b0 bf d4 bd 5a 03 cc bf f3 5a 92 3c 3c 0b 12 b4
       -0.10388124 -1.5938523 0.017865634 -1.3601397e-07
0003e0 37 0e 00 80 c4 01 00 80 03 08 00 80 05 0b 00 00
       -5.1e-42 -6.33e-43 -2.874e-42 3.953e-42
0003f0 ff 97 c7 bf 22 42 38 3f 46 e7 c4 bd 53 24 da bd
       -1.559326 0.7197591 -0.096144244 -0.106514595

linear.2.bias f4 [128]
000000 26 07 00 80 b9 5d 9c bd b0 0f 00 80 62 eb 00 bd
       -2.564e-42 -0.07635064 -5.628e-42 -0.03147448
000010 87 00 00 80 45 01 00 80 ef 63 a4 bc ab 02 00 00
       -1.89e-43 -4.55e-43 -0.020067183 9.57e-43
000020 f6 07 00 00 bb 54 c5 bb 2a 96 8b bd 23 07 00 00
       2.856e-42 -0.0060220635 -0.06815751 2.56e-42
000030 91 ec b6 23 4a f2 8b 3d b8 1a 1a bc 08 50 93 bc
       1.983267e-17 0.06833322 -0.009405784 -0.017982498
000040 5f 3e 6b bd ef 9f 68 b7 74 f8 e3 91 db 00 89 ba
       -0.05743253 -1.3865515e-05 -3.5967406e-28 -0.0010452525
000050 d1 06 00 00 c5 04 00 80 86 05 00 80 c5 03 00 00
       2.445e-42 -1.711e-42 -1.981e-42 1.352e-42
000060 07 12 00 00 a1 83 bc ad 47 0b 00 00 76 fb 97 bc
       6.467e-42 -2.143158e-11 4.046e-42 -0.018552523
000070 45 05 00 80 8d bf 91 bc a8 a1 ce 39 ab 07 00 00
       -1.89e-42 -0.017791534 0.00039411825 2.751e-42
000080 c0 81 0e bd e2 f0 8f ab 7d 04 00 00 42 d7 79 05
       -0.034791708 -1.022762e-12 1.61e-42 1.174746e-35
000090 d2 17 28 b9 9b b5 f1 bc 25 d8 08 80 e3 02 00 00
       -0.00016030602 -0.029505542 -8.12222e-40 1.036e-42
0000a0 be 06 00 00 7f 90 9d 8b ee 38 f0 bb 0f 84 de bc
       2.419e-42 -6.0691614e-32 -0.0073310053 -0.02716258
0000b0 58 06 00 00 5a ad 8d b9 26 ab 44 bd 70 ad 97 b9
       2.276e-42 -0.00027022773 -0.048014782 -0.00028930185
0000c0 55 78 a8 b5 55 0f 00 00 f0 fb 80 b7 0e 01 00 80
       -1.2551997e-06 5.5e-42 -1.5376107e-05 -3.78e-43
0000d0 10 13 00 80 9d 57 c9 bb b4 00 00 80 72 0b 00 80
       -6.838e-42 -0.0061444775 -2.52e-43 -4.106e-42
0000e0 97 f6 9d 05 ef ea 98 bd ff 37 03 3d cb 08 1a bc
       1.4854792e-35 -0.07466685 0.032035824 -0.0094015105
0000f0 7b 25 34 1d b2 38 14 bc 58 0a 00 80 a2 05 00 00
       2.3842179e-21 -0.00904672 -3.71e-42 2.02e-42
000100 8b a4 7c 3d 83 0a 69 3d 6b 7d 63 3b c5 31 00 80
       0.061680358 0.05689479 0.0034712206 -1.7854e-41
000110 71 07 00 80 10 d2 82 bc df 28 00 00 ed a8 35 ba
       -2.67e-42 -0.015969306 1.4662e-41 -0.0006929774
000120 0a 0d 00 00 4f 5a d8 3b c2 10 00 80 4d 0e 00 00
       4.678e-42 0.0066025625 -6.012e-42 5.13e-42
000130 1f b7 2b bb 88 db 23 a2 1b da bb 06 f8 29 bf 3d
       -0.0026201678 -2.2206838e-18 7.066206e-35 0.09334177
000140 95 52 db bc bc 0a e6 93 c8 c7 19 3d 3c e9 b9 bc
       -0.026772777 -5.8070748e-27 0.037544042 -0.022694223
000150 c7 0e 00 00 25 04 9f 92 55 04 00 80 4d 0a ed bc
       5.301e-42 -1.0035332e-27 -1.554e-42 -0.028935576
000160 86 11 00 80 f0 03 00 80 a5 48 a5 3d 31 26 6f ba
       -6.286e-42 -1.413e-42 0.080704965 -0.00091228174
000170 73 00 00 00 6b 03 00 80 53 d5 f9 ba 7a 10 00 80
       1.61e-43 -1.226e-42 -0.0019060768 -5.91e-42
000180 a5 00 00 80 32 36 2a b9 30 02 00 80 29 03 00 00
       -2.31e-43 -0.00016232653 -7.85e-43 1.134e-42
000190 ed 89 2b 3e fe 06 00 00 30 eb 6c bc 1b 07 00 00
       0.16751833 2.508e-42 -0.01446037 2.549e-42
0001a0 03 05 00 00 7f 01 00 80 f4 fc ee bc ab b5 1b bc
       1.798e-42 -5.37e-43 -0.029173352 -0.009503762
0001b0 8a 06 00 80 20 30 6f 12 2d 08 00 80 58 05 00 00
       -2.346e-42 7.547442e-28 -2.933e-42 1.917e-42
0001c0 3b 4e 99 3d fa 09 00 80 59 6d 17 03 b2 21 9f af
       0.074856244 -3.579e-42 4.4500437e-37 -2.8945873e-10
0001d0 a3 f5 9a bb 2b 05 00 00 83 b9 99 bc 82 5b f9 bc
       -0.004728989 1.854e-42 -0.018765217 -0.030439142
0001e0 79 7e ad 3b 2a 74 87 3d 05 cb 5a bc 70 06 00 00
       0.0052946177 0.066139534 -0.013354068 2.31e-42
0001f0 75 07 83 ba 6d 74 00 00 b5 03 00 00 0e 0f 00 00
       -0.0009996729 4.1766e-41 1.33e-42 5.4e-42

linear.4.weight f4 [4, 128]
000000 22 55 8d 35 5c ff 59 c0 fe 05 98 bc a7 8f 16 3e
       1.0530096e-06 -3.406211 -0.018557545 0.14703237
000010 80 60 8e 39 b2 ab c5 bc e8 db a1 bf 22 26 0d ba
       0.0002715625 -0.024129722 -1.2645235 -0.00053844054
000020 12 b0 00 bd 64 3b eb bc 21 47 f8 bf a7 80 0b 38
       -0.031417914 -0.028714843 -1.9396707 3.326e-05
000030 dc 5f a4 bb 73 60 82 bf fb 50 50 c0 e0 40 84 bf
       -0.00501631 -1.0185684 -3.2549427 -1.0332298
000040 b0 57 a8 3b 00 f5 1d 3c a6 1f 94 b1 2e 90 d8 bc
       0.0051374063 0.009640932 -4.310965e-09 -0.026435938
000050 19 39 c1 34 49 6e 0a 2b 1d 39 80 bc df e8 51 3d
       3.5990595e-07 4.91805e-13 -0.015652234 0.051247474
000060 2e a2 b5 3c d2 9d 65 bc 44 3d eb 3c 6b 56 4a bc
       0.02217206 -0.014014678 0.028715737 -0.012349705
000070 b1 91 55 3c 92 2b 10 3f 7c b6 ef 3c 76 0c 18 3c
       0.013035224 0.56316483 0.02926182 0.009280315
000080 09 c5 93 bc 86 b9 97 bc 3e 11 92 b9 4a 73 af 3a
       -0.01803829 -0.018521082 -0.00027860136 0.0013385799
000090 26 15 c7 bd 97 a4 4b 3c 74 72 02 b9 c9 2c 7b ab
       -0.097208306 0.012429378 -0.00012440403 -8.9235265e-13
0000a0 6f 33 5c 2f 0d 31 d1 3c fb bb 69 be ab 63 66 bd
       2.0027156e-10 0.025536085 -0.22825615 -0.056247395
0000b0 e7 df 4f 29 c7 3e c7 bd 11 28 f3 3e ee 63 42 bc
       4.6157438e-14 -0.09728771 0.47491506 -0.011864645
0000c0 6d 36 6c 3c cf 1a c5 3c df d4 21 3f bd a2 e6 36
       0.014417273 0.024060635 0.6321544 6.8734794e-06
0000d0 a5 ca 0f b6 63 0f 7e 3c 38 cb d1 3c 5a 13 86 b9
       -2.1426615e-06 0.015506598 0.025609598 -0.0002557289
0000e0 fe b6 d7 bc 2c bf f8 3f fa aa 34 3d fb 84 2b bf
       -0.026332375 1.9433341 0.04410837 -0.6699979
0000f0 1d 4d cf 38 bb 1f ab 3c 30 34 f2 2f 09 71 9f 3b
       9.884893e-05 0.020889154 4.4056625e-10 0.0048657698
000100 62 68 e7 3c 9f 3b b5 bf 4e a5 22 bd e9 d9 28 2a
       0.028248016 -1.415882 -0.039708428 1.4997e-13
000110 0b 11 00 80 fd 91 4f 3d 38 e0 2d b0 14 8f c3 ba
       -6.114e-42 0.050676335 -6.325567e-10 -0.001491996
000120 1b 08 00 80 c1 7d 03 bd 76 60 19 bc e9 96 ba b2
       -2.908e-42 -0.03210235 -0.009361377 -2.1721876e-08
000130 fe 31 80 bc 33 f2 2e bd ad 71 d2 3c 96 f0 55 3e
       -0.015648838 -0.042711448 0.02568897 0.20892558
000140 8b ff 3c bd fa 4d 67 16 85 89 8a 3d 98 32 0e 3c
       -0.046142142 1.8684636e-25 0.06764511 0.008679055
000150 27 e6 58 b9 6f 6e 27 3d aa d4 ad bb 74 fe 99 bf
       -0.00020685104 0.040876802 -0.0053048925 -1.2030778
000160 f4 fc 03 3d 64 06 00 80 87 b2 fd 3d 3a d7 0b bc
       0.032223657 -2.293e-42 0.12387567 -0.008535201
000170 56 2c c3 b8 39 02 02 00 b3 a5 4f bd 4e 43 12 3d
       -9.306583e-05 1.84468e-40 -0.050695132 0.035708718
000180 64 45 84 3c 93 d8 ae bc 2f 91 25 bc 97 bc db ba
       0.01614637 -0.021343505 -0.010105415 -0.0016764578
000190 ac 42 f2 3e da ec 43 3a cf 0c 87 be ff 9a 9c bc
       0.47316492 0.00074739533 -0.2637696 -0.019116877
0001a0 6f 7b e0 a5 e5 41 e4 bc 0f 42 b5 3a 67 29 ed bc
       -3.8941448e-16 -0.027863452 0.0013828891 -0.028950406
0001b0 0e 2a e2 30 71 93 88 b9 ad 5a 4b a4 25 03 93 b7
       1.6455617e-09 -0.00026049794 -4.4095414e-17 -1.752523e-05
0001c0 e0 a1 71 bf 4d 30 64 ba 04 b7 ec 34 f7 a0 ab bc
       -0.94387627 -0.0008704707 4.4091587e-07 -0.020950777
0001d0 06 5d 44 bd a4 bd 41 b9 9e a9 b9 bf 74 0f 84 3d
       -0.047940277 -0.00018476561 -1.4504888 0.0644826
0001e0 22 cf 61 bc b9 78 f2 3e f6 1a fa bb 68 c9 a6 ba
       -0.0137822945 0.4735773 -0.0076326085 -0.0012724819
0001f0 1a e0 70 3a 1b 0f 00 80 e9 3d cc b9 22 06 00 00
       0.0009188667 -5.419e-42 -0.0003895604 2.2e-42
000200 4d 6f 05 b7 30 9e 40 c0 19 d6 00 3c c6 ae 94 3e
       -7.953332e-06 -3.009655 0.007863545 0.29039592
000210 c7 2a af b8 43 a8 63 3c a1 eb db bf f0 56 80 b9
       -8.352618e-05 0.013895097 -1.7181283 -0.00024478836
000220 83 00 2d 3c d6 16 28 3e f0 7a 8e bf 85 06 8e 37
       0.010559204 0.16414961 -1.1131268 1.6930755e-05
000230 cc d5 97 3c 5a 20 db bf 7a 3f 0d c0 98 1a de bf
       0.018534563 -1.7119248 -2.2069993 -1.7351866
000240 d5 f6 02 3e 60 ea 56 3c 59 ab 8a ae b7 4f 55 3d
       0.12789471 0.013117403 -6.305951e-11 0.052077975
000250 fc e4 b5 b2 73 ad 22 bc 12 d9 88 bc a2 c4 50 bd
       -2.1175303e-08 -0.009929049 -0.01670507 -0.050968774
000260 d8 7a 5d 3c b7 75 6f 3c 62 f3 8d 3c 1e c6 a8 39
       0.013518058 0.014615468 0.017327968 0.00032191066
000270 fb 03 ad 3b 47 df 84 be 14 69 4f bd 82 72 8f bb
       0.0052800155 -0.25951597 -0.05063732 -0.004377664
000280 74 43 14 bd 52 a8 d1 ba e8 c6 4c b9 66 c9 8b bc
       -0.03619714 -0.0015995598 -0.00019529054 -0.017063808
000290 04 5d 11 3e f2 b1 2c 3e ca 9d 3a 3c 08 da ad 27
       0.14195639 0.16864756 0.011390159 4.8253536e-15
0002a0 0b f5 5f a7 74 c0 01 3d e4 ea 0c 3f e2 ac 7a 3c
       -3.1080305e-15 0.03167768 0.55045915 0.015300008
0002b0 bd 0d 1e 23 17 6a 1d 3e bd 95 01 be 41 93 0e bd
       8.568106e-18 0.15372501 -0.12654777 -0.0348084
0002c0 c6 48 16 3d e5 5a cb 3c 85 91 00 bf e5 0c 98 38
       0.036690496 0.024823615 -0.50222045 7.2503266e-05
0002d0 c7 c6 15 2d a1 8a 96 bc d4 19 d2 3c 23 24 ac b9
       8.513807e-12 -0.01837665 0.025647081 -0.0003283332
0002e0 5c c8 a6 bb 4f 02 6d 3c 1b 46 5e bf c1 6c a3 bf
       -0.0050898027 0.014465882 -0.8682572 -1.2767564
0002f0 9b 5f 9c b9 d7 a6 f4 3d f1 d5 45 ae d3 41 50 ba
       -0.0002982587 0.11945885 -4.4982632e-11 -0.0007944379
000300 09 bb 75 3d d3 29 b1 bf 5a a1 aa 3d f9 0f 1b 27
       0.059992824 -1.3840889 0.083315566 2.151923e-15
000310 cc 0a 00 80 74 d0 df 3c 66 2b 02 2d 77 85 15 bd
       -3.873e-42 0.027321078 7.399281e-12 -0.036504235
000320 0f 11 00 80 a9 39 70 3d 20 3c 21 bc 05 d4 37 31
       -6.12e-42 0.05864874 -0.009840995 2.6750524e-09
000330 82 18 0c 3c fc 9a 4a ba f7 a2 dd 3c ca 08 ba 3d
       0.008550765 -0.0007728783 0.027055247 0.09083708
000340 37 34 2e 3e 08 f0 57 15 18 c2 85 3d 22 06 1f 3c
       0.17012106 4.3608255e-26 0.06531161 0.009706052
000350 66 bb e8 bb 28 0e 94 bc 34 e7 75 bb 8f bd 6a bf
       -0.0071024178 -0.018073156 -0.003752184 -0.91695493
000360 51 e7 9b 3c 14 b7 8d 2a 18 d7 86 bc 7e 03 17 bc
       0.019031199 2.5173667e-13 -0.016459987 -0.009217141
000370 14 02 58 38 40 10 00 80 8d 4a 0a 3e 7a f3 5d 3a
       5.150035e-05 -5.83e-42 0.13505001 0.0008466762
000380 55 36 de b9 f1 8c 07 3d d9 f6 51 3c b8 59 05 bb
       -0.0004238362 0.033093397 0.012815201 -0.0020347666
000390 78 65 92 be ad 15 cf bc 20 c6 06 be cc 9b 8e 3c
       -0.2859304 -0.02527889 -0.13161516 0.017408274
0003a0 b4 0c 00 80 d7 b7 16 bd ff 92 5d 3e f7 9f 83 3c
       -4.557e-42 -0.036796417 0.21638106 0.016067488
0003b0 db 5c c2 2f e4 a1 9e b7 54 01 00 80 c6 8e 83 36
       3.5354372e-10 -1.8910454e-05 -4.76e-43 3.9207252e-06
0003c0 3b 59 59 bf 65 e7 71 3c e5 af de a2 5e ba 02 b9
       -0.8490178 0.014764641 -6.0359456e-18 -0.00012467193
0003d0 12 db e1 3d 0e 86 d2 38 a8 55 e9 bf 22 c1 c4 3d
       0.110281125 0.0001003855 -1.8229265 0.0960715
0003e0 0e 78 b7 3d a2 26 90 3e 77 26 96 3d b5 48 2b 3a
       0.089584455 0.28154474 0.07331555 0.00065339665
0003f0 29 0f 9f bc f4 11 00 80 2e b1 19 b9 67 0e 00 80
       -0.019416409 -6.44e-42 -0.00014657222 -5.167e-42

linear.4.bias f4 [4]
000000 61 f7 88 3c eb fa c8 bd 01 b0 a5 3c 0c 3f 95 bc
       0.016719522 -0.09813484 0.020225527 -0.01821854
